…
3\u7d30\u60c5\u5831\u3092\u53d6\u5f97\u3067\u304d\u307e\u3059\uff1a</p> <pre><code>from torchinfo import summary\nsummary(model_0, input_size=[1, 3, 64, 64]) # \u4f8b\u306e\u5165\u529b\u30b5\u30a4\u30ba\u3067\u30c6\u30b9\u30c8\u30d1\u30b9\n</code></pre> <p>\u51fa\u529b\u7d50\u679c\uff1a <pre><code>==========================================================================================\nLayer (type:depth-idx)                   Output Shape              Param #\n==========================================================================================\nTinyVGG                                  [1, 3]                    --\n\u251c\u2500Sequential: 1-1                        [1, 10, 32, 32]           --\n\u2502    \u2514\u2500Conv2d: 2-1                       [1, 10, 64, 64]           280\n\u2502    \u2514\u2500ReLU: 2-2                         [1, 10, 64, 64]           --\n\u2502    \u2514\u2500Conv2d: 2-3                       [1, 10, 64, 64]           910\n\u2502    \u2514\u2500ReLU: 2-4                         [1, 10, 64, 64]           --\n\u2502    \u2514\u2500MaxPool2d: 2-5                    [1, 10, 32, 32]           --\n\u251c\u2500Sequential: 1-2                        [1, 10, 16, 16]           --\n\u2502    \u2514\u2500Conv2d: 2-6                       [1, 10, 32, 32]           910\n\u2502    \u2514\u2500ReLU: 2-7                         [1, 10, 32, 32]           --\n\u2502    \u2514\u2500Conv2d: 2-8                       [1, 10, 32, 32]           910\n\u2502    \u2514\u2500ReLU: 2-9                         [1, 10, 32, 32]           --\n\u2502    \u2514\u2500MaxPool2d: 2-10                   [1, 10, 16, 16]           --\n\u251c\u2500Sequential: 1-3                        [1, 3]                    --\n\u2502    \u2514\u2500Flatten: 2-11                     [1, 2560]                 --\n\u2502    \u2514\u2500Linear: 2-12                      [1, 3]                    7,683\n==========================================================================================\nTotal params: 10,693\nTrainable params: 10,693\nNon-trainable params: 0\nTotal mult-adds (Units.MEGABYTES): 6.75\n==========================================================================================\n</code></pre></p>","tags":["PyTorch","\u30ab\u30b9\u30bf\u30e0\u30c7\u30fc\u30bf\u30bb\u30c3\u30c8",
…
